…
loss_lambda                   0.2
embedding_size                1000
hidden_size                   1000
num_epochs                    50
batch_size                    128
learning_rate                 0.001
train                         True
eval_ckpt                     None

Preparing Data ...
loading annotations into memory...
Done (t=0.05s)
creating index...
index created!
loading annotations into memory...
Done (t=0.00s)
creating index...
index created!

Loading Model ...
embed_size: 1000
GVE(
  (vision_model): PretrainedModel(
    (pretrained_model): VGG(
      (features): Sequential(
        (0): Conv2d(3, 64, kernel_size=(3, 3), stride=(1, 1), padding=(1, 1))
        (1): ReLU(inplace)
        (2): Conv2d(64, 64, kernel_size=(3, 3), stride=(1, 1), padding=(1, 1))
        (3): ReLU(inplace)
        (4): MaxPool2d(kernel_size=2, stride=2, padding=0, dilation=1, ceil_mode=False)
        (5): Conv2d(64, 128, kernel_size=(3, 3), stride=(1, 1), padding=(1, 1))
        (6): ReLU(inplace)
        (7): Conv2d(128, 128, kernel_size=(3, 3), stride=(1, 1), padding=(1, 1))
        (8): ReLU(inplace)
        (9): MaxPool2d(kernel_size=2, stride=2, padding=0, dilation=1, ceil_mode=False)
        (10): Conv2d(128, 256, kernel_size=(3, 3), stride=(1, 1), padding=(1, 1))
        (11): ReLU(inplace)
        (12): Conv2d(256, 256, kernel_size=(3, 3), stride=(1, 1), padding=(1, 1))
        (13): ReLU(inplace)
        (14): Conv2d(256, 256, kernel_size=(3, 3), stride=(1, 1), padding=(1, 1))
        (15): ReLU(inplace)
        (16): MaxPool2d(kernel_size=2, stride=2, padding=0, dilation=1, ceil_mode=False)
        (17): Conv2d(256, 512, kernel_size=(3, 3), stride=(1, 1), padding=(1, 1))
        (18): ReLU(inplace)
        (19): Conv2d(512, 512, kernel_size=(3, 3), stride=(1, 1), padding=(1, 1))
        (20): ReLU(inplace)
        (21): Conv2d(512, 512, kernel_size=(3, 3), stride=(1, 1), padding=(1, 1))
        (22): ReLU(inplace)
        (23): MaxPool2d(kernel_size=2, stride=2, padding=0, dilation=1, ceil_mode=False)
        (24): Conv2d(512, 512, kernel_size=(3, 3), stride=(1, 1), padding=(1, 1))
        (25): ReLU(inplace)
        (26): Conv2d(512, 512, kernel_size=(3, 3), stride=(1, 1), padding=(1, 1))
        (27): ReLU(inplace)
        (28): Conv2d(512, 512, kernel_size=(3, 3), stride=(1, 1), padding=(1, 1))
        (29): ReLU(inplace)
        (30): MaxPool2d(kernel_size=2, stride=2, padding=0, dilation=1, ceil_mode=False)
      )
      (avgpool): AdaptiveAvgPool2d(output_size=(7, 7))
      (classifier): Sequential(
        (0): Linear(in_features=25088, out_features=4096, bias=True)
        (1): ReLU(inplace)
        (2): Dropout(p=0.5)
        (3): Linear(in_features=4096, out_features=4096, bias=True)
        (4): ReLU(inplace)
        (5): Dropout(p=0.5)
      )
    )
  )
  (word_embed): Embedding(978, 1000, padding_idx=0)
  (linear1): Linear(in_features=4096, out_features=1000, bias=True)
  (lstm1): LSTM(1000, 1000, batch_first=True)
  (lstm2): LSTM(2017, 1000, batch_first=True)
  (linear2): Linear(in_features=1000, out_features=978, bias=True)
  (sentence_classifier): SentenceClassifier(
    (word_embed): Embedding(978, 1000, padding_idx=0)
    (lstm): LSTM(1000, 1000, batch_first=True)
    (linear): Linear(in_features=1000, out_features=17, bias=True)
  )
) 

Training ...
Epoch [0/50], Step [0/23], Loss: 14.1960, Perplexity: 1462996.4276
Epoch [0/50], Step [10/23], Loss: 6.1205, Perplexity: 455.0931
Epoch [0/50], Step [20/23], Loss: 7.5391, Perplexity: 1880.1733
Epoch [0/50], Step [0/3]
Loading and preparing results...
DONE (t=0.00s)
creating index...
index created!
tokenization...
setting up scorers...
…
